fluxgan_model/checkpoint_1000.tar (torch, 383179 bytes, 62 tensors)

net.0.weight f4 [64, 13]
0	0x3b160eb3	0.0022896945
1	0x3b8561d5	0.0040705004
2	0xbb3b1c62	-0.0028550853
3	0xba5036ba	-0.0007942725
4	0xbb1e3d79	-0.0024145527
5	0xb8a248d1	-7.738325e-05
6	0x3b19facf	0.002349544
7	0xbb82f4d6	-0.003996472
8	0xbb70f18b	-0.0036765065
9	0xbb82e882	-0.0039950022
10	0x3eec01ee	0.46095222
11	0x3edb4a60	0.4283018
12	0xbf1e6732	-0.61876214
13	0xbb0c762e	-0.0021432745
14	0xbdf9feee	-0.12206827
15	0x3de03032	0.109466925
16	0x3e71a2ac	0.2359721
17	0x3cd43805	0.025905618
18	0x3d9f3b57	0.0777499
19	0x3c050c1f	0.008120566
20	0xbdd82552	-0.10553993
21	0xbe3c7a88	-0.18406117
22	0x3e74dd3c	0.23912519
23	0x3eacfd46	0.33786982
24	0xbde53a4d	-0.111927606
25	0xbed47c68	-0.41501164
26	0x3cabf79c	0.020992093
27	0x3dc6ee44	0.09713414
28	0xbd7b1873	-0.061302613
29	0xbc8493c8	-0.016183749
30	0x3dd5d61c	0.10441229
31	0xbd99895d	-0.07496903
32	0x3d0f5aed	0.034998823
33	0xbca2427e	-0.019807097
34	0x3e272d8b	0.16325967
35	0xbe09744f	-0.13423274
36	0x3ee52b3b	0.44759545
37	0xbeff5222	-0.4986735
38	0x3e076a61	0.13224174
39	0xbdf12fdf	-0.11776709
40	0xbddfed3f	-0.10933923
41	0x3db1e3bf	0.08686017
42	0x3e32dd5e	0.17467257
43	0x3ca13000	0.019676208
44	0x3e17c0da	0.14819661
45	0xbc6033ab	-0.013684194
46	0xbd6fa0ca	-0.05850295
47	0xbe3d2833	-0.18472366
48	0x3dcb55c0	0.09928465
49	0xbd9a9a1b	-0.075489245
50	0xbee0e5a4	-0.43925202
51	0x3f08fd0a	0.53511107
52	0xbcb855a3	-0.022501772
53	0x3e0810a0	0.13287592
54	0x3d233c52	0.039852448
55	0x3d4c4cd6	0.049877964
56	0xbe0c0a94	-0.1367591
57	0xbe5257e5	-0.20541342
58	0xbd4000a1	-0.0468756
59	0x3de220c6	0.11041407
60	0xbe0e7106	-0.13910303
61	0x3bb80935	0.005616332
62	0x3d98c9d1	0.074603684
63	0x3db5f7f0	0.08885181
64	0xbdd72a2e	-0.10506092
65	0xbc2344ba	-0.009965116
66	0xbbe34862	-0.006936119
67	0x3c788c63	0.01517019
68	0xbc48599d	-0.012228397
69	0x3d03b193	0.03215177
70	0xbc0f5041	-0.008747161
71	0x3bdbec37	0.0067115086
72	0xbc8d5964	-0.017254539
73	0x3be9a7a1	0.0071305786
74	0xbadbd14f	-0.0016770753
75	0xbf3834fa	-0.71955836
76	0x3e9b51f2	0.30335957
77	0x3df5f50b	0.12009629
78	0xbd7ed8e0	-0.062218547
79	0x3dc54914	0.09633079
80	0xbd8864f5	-0.06659881
81	0x3d722d29	0.0591251
82	0xbdde62ca	-0.10858686
83	0xbda2eb48	-0.079550326
84	0x3d9a3ebf	0.07531499
85	0xbdc3efa2	-0.09567191
86	0xbd59624b	-0.053072255
87	0x3dc55320	0.096349955
88	0xbedc5e89	-0.43040875
89	0xbe57beac	-0.2106883
90	0x3e08982b	0.13339297
91	0xbe413bbc	-0.18870443
92	0xbdfc5497	-0.12320822
93	0x3d8ab5c6	0.06772952
94	0x3e2060c2	0.1566191
95	0x3d896d7a	0.06710334
96	0x3e020e9f	0.1270089
97	0xbdde4a75	-0.10854045
98	0xbdf7f998	-0.12108153
99	0xbe2debf3	-0.16984539
100	0x3e140d6d	0.14458247
101	0x3dc0ae79	0.09408278
102	0x3ee2d5f4	0.44303858
103	0xbe4cae6e	-0.19988415
104	0x3e1fef1c	0.15618557
105	0x3e42abe7	0.19010888
106	0x3e045810	0.12924218
107	0xbdc7ce71	-0.097561724
108	0xbde58faf	-0.11209046
109	0x3d6a4314	0.057192877
110	0x3e1cf271	0.15326859
111	0xbdf65f06	-0.12029843
112	0xbda1f0fd	-0.07907293
113	0x3e661ca5	0.22471865
114	0x3e010622	0.12599996
115	0x3ed28e97	0.41124412
116	0xbe84dcb7	-0.25949642
117	0xbe1165f4	-0.14199048
118	0xbe108b7d	-0.1411571
119	0x3dffa1bd	0.12482021
120	0xbcdf9457	-0.027292414
121	0x3c061b2f	0.008185192
122	0x3cdd296e	0.026997294
123	0x3e571d6e	0.2100732
124	0xbe5bab19	-0.21451987
125	0x3e301934	0.17197114
126	0xbe3a457c	-0.18190569
127	0xbe6ee07a	-0.23327819
128	0xbe51ba11	-0.20481135
129	0xbe763e9d	-0.24047323
130	0x3a0ccdf0	0.0005371263
131	0xbe6d5c15	-0.23179658
132	0xbaa60527	-0.001266633
133	0xbd4c4350	-0.04986888
134	0x3e0f87e5	0.14016683
135	0x3d85cc8b	0.06533154
136	0x3e6280e2	0.22119477
137	0xbe09287f	-0.13394354
138	0xbe1b4a29	-0.15165009
139	0x3e620c54	0.22075015
140	0xbe81e460	-0.2536955
141	0x3ceb5352	0.028726254
142	0x3d1f1d1f	0.03884613
143	0xbbb3da27	-0.0054886523
144	0xbe0301a9	-0.12793602
145	0x3dc40d9a	0.09572907
146	0xbd6c4678	-0.05768439
147	0xbc68ad2d	-0.014201445
148	0x3d901d2f	0.07036816
149	0x3d9155af	0.07096421
150	0x3cf8346c	0.030298434
151	0xbdbca974	-0.09212008
152	0xbd24cbb3	-0.040233325
153	0xbee80572	-0.45316654
154	0xbe3f8c5a	-0.18705884
155	0x3eb48b69	0.35262612
156	0xbe4dd45d	-0.20100541
157	0x3d0003b3	0.031253528
158	0xbdb0341a	-0.086036876
159	0xbd7ff105	-0.062485714
160	0xbe363c20	-0.17796373
161	0xbdeb150c	-0.11478624
162	0x3d2f194e	0.04274874
163	0x3e136f8f	0.14398025
164	0xbddbddc6	-0.10735659
165	0xbcccbe1b	-0.024992993
166	0x3ec0207d	0.37524787
167	0xbe0a8145	-0.13525875
168	0x3f340021	0.70312697
169	0x3e51f3de	0.20503184
170	0x3e438faa	0.19097772
171	0xbdcb608d	-0.09930525
172	0xbe1c9c42	-0.15293983
173	0x3dcf5bf6	0.10124962
174	0x3c3843fc	0.0112466775
175	0x3dbce57e	0.0922346
176	0xbd475fc5	-0.048675317
177	0xbe1d59b3	-0.15366249
178	0x3d8a19d5	0.06743208
179	0xbdfd1b1f	-0.123586886
180	0xbe240b0f	-0.16019844
181	0x3f0b1174	0.54323506
182	0x3d800f14	0.06252876
183	0xbe844954	-0.25837195
184	0x3e73d094	0.23810035
185	0xbc18ce5f	-0.009326546
186	0xbd805734	-0.06266633
187	0x3e203d6f	0.15648435
188	0x3e81f21f	0.25380036
189	0x3e1f58d5	0.1556123
190	0xbe748427	-0.23878537
191	0x3da9b6b7	0.08286803
192	0x3eba7b10	0.36422014
193	0x3c8a340a	0.016870517
194	0xbeee39dd	-0.4652852
195	0xbced593f	-0.02897322
196	0xbde77e1e	-0.11303352
197	0xbdd7e29a	-0.10541268
198	0xbd025a04	-0.031824127
199	0xbd308290	-0.043093264
200	0x3e34adfc	0.17644495
201	0xbe40614a	-0.18787113
202	0x3e37c2f4	0.17945462
203	0x3dd16fa8	0.10226375
204	0x3d97259b	0.073802195
205	0x3f0e7d6d	0.55660135
206	0x3e078724	0.13235146
207	0xbd2769a7	-0.040872242
208	0x3d827bf2	0.06371297
209	0x3d01f4b0	0.031727493
210	0x3bf06fd3	0.0073375492
211	0x3d12cfbd	0.035842646
212	0xbc80f67f	-0.015742538
213	0xbcf0f467	-0.029413415
214	0x3c451cae	0.012030764
215	0x3ceca714	0.028888263
216	0x3d337e8f	0.043821868
217	0xbd8e24ae	-0.0694059
218	0xbefde35a	-0.49587518
219	0x3e255008	0.16143811
220	0xbe39fd59	-0.1816305
221	0xbc224a1e	-0.009905366
222	0xbe1fbd82	-0.15599635
223	0xbe5efdc0	-0.21776485
224	0x3db91e5e	0.09038995
225	0x3e38f04a	0.18060413
226	0x39f37ad6	0.00046440092
227	0xbe3058c2	-0.17221358
228	0x3e3121eb	0.17298095
229	0x3e6e9cfb	0.23302071
230	0x3e6ac032	0.22924879
231	0xbdb610d8	-0.088899314
232	0x3de3335a	0.11093779
233	0x3ebdc277	0.37062427
234	0x3ced22c9	0.02894725
235	0xbd5192d0	-0.051165402
236	0x3d475102	0.04866124
237	0xbd4a7837	-0.049431052
238	0x3d10670d	0.035254527
239	0x3d5a533e	0.053302042
240	0x3d677bb0	0.056514442
241	0xbcb206c4	-0.021731742
242	0xbd8bffab	-0.06835874
243	0x3caa80ca	0.020813365
244	0xbe995e9c	-0.29954994
245	0x3f267820	0.65027046
246	0xbf0ebb7e	-0.5575484
247	0xbdc31028	-0.09524566
248	0x3e0977ed	0.13424654
249	0x3e141555	0.14461263
250	0xbda1eddc	-0.07906696
251	0x3b819e14	0.003955612
252	0xbe86060d	-0.2617649
253	0xbdcd74b0	-0.10032022
254	0x3e2e1fb8	0.17004287
255	0x3c9f97e4	0.019481607

net.0.bias f4 [64]
0	0x3d1e8b15	0.038706858
1	0x3d1e6428	0.038669735
2	0xbc9fc37e	-0.019502398
3	0xbe00f524	-0.12593514
4	0xbd97d1ac	-0.074130386
5	0xbcb3427d	-0.02188229
6	0xbe4c7672	-0.19967058
7	0x3e2cdb6b	0.16880576
8	0x3e782053	0.2423108
9	0x3e8414a5	0.25797
10	0x3e2da5e7	0.16957818
11	0x3dad3502	0.08457376
12	0xbc0e880a	-0.008699426
13	0x3d8ac29b	0.06775399
14	0xbe7fcf12	-0.24981335
15	0xbd9f139e	-0.077674136
16	0xbd98dfb2	-0.074645415
17	0x3d551274	0.05201955
18	0x3e8c2f59	0.27379873
19	0x3dd4ec49	0.1039663
20	0x3e5d47f4	0.21609479
21	0xbd066859	-0.032814357
22	0xbca3947b	-0.019968262
23	0x3e3c348b	0.18379419
24	0xbd954dff	-0.07290267
25	0x3d40d9a5	0.047082562
26	0xbe45be63	-0.19310908
27	0xbe379eed	-0.17931719
28	0xbe87804e	-0.26465076
29	0x3dbc7ce7	0.09203511
30	0xbc2b22d4	-0.010445315
31	0x3e6b3715	0.22970231
32	0xbdb9aee8	-0.09066564
33	0x3d2dc178	0.042420834
34	0x3e829d66	0.2551071
35	0xbe7265fb	-0.23671715
36	0x3dd04c51	0.10170806
37	0x3e8a63dc	0.27029312
38	0xbc7eb783	-0.015546682
39	0xbe88c99d	-0.2671632
40	0xbd86749f	-0.065652125
41	0x3cc48bc6	0.02399243
42	0x3dc41334	0.09573975
43	0x3d56dabc	0.052454695
44	0xbd3f6e67	-0.046736147
45	0xbe412a73	-0.1886385
46	0xbe756914	-0.23965865
47	0xbe1bc677	-0.15212427
48	0x3b8472f1	0.0040420224
49	0x3e4c60b6	0.19958767
50	0x3d93e225	0.07220868
51	0x3e3e30ba	0.18573275
52	0x3e78338f	0.24238418
53	0x3e17e923	0.14835028
54	0x3c70e9cf	0.014704182
55	0x3e1581a9	0.14600243
56	0xbda051f2	-0.0782813
57	0xbd29a7be	-0.041419737
58	0x3d0de4ac	0.034641907
59	0xbd65385d	-0.055961955
60	0xbdceb5b5	-0.100932516
61	0x3ddf9c4e	0.10918485
62	0xbd42f98b	-0.047601264
63	0x3dbf53a1	0.09342123

net.1.weight f4 [64]
0	0x3f90bdaa	1.1307881
1	0x3f5bff95	0.8593686
2	0x3f5de1db	0.86672753
3	0x3f5e77af	0.8690137
4	0x3f4712c7	0.77763027
5	0x3f95adad	1.1693627
6	0x3f760e43	0.9611551
7	0x3f67a521	0.9048634
8	0x3f66a3b0	0.9009352
9	0x3f56a81c	0.83850265
10	0x3f59bdd7	0.850553
11	0x3f8080e9	1.003934
12	0x3f514c48	0.8175702
13	0x3f3e9cc0	0.7445793
14	0x3f5a9a06	0.8539127
15	0x3f5ba01a	0.8579117
16	0x3f891656	1.0709941
17	0x3f4f6b67	0.8102326
18	0x3f7fbc79	0.9989696
19	0x3f345968	0.70448923
20	0x3f71b6b3	0.944194
21	0x3f5a2936	0.8521913
22	0x3f79a7bd	0.97521573
23	0x3f41607d	0.75537854
24	0x3f3c8579	0.73641163
25	0x3f975dd2	1.1825507
26	0x3f57fa24	0.8436606
27	0x3f75e2ba	0.9604908
28	0x3f4213e6	0.7581161
29	0x3f4f8537	0.81062645
30	0x3f724335	0.946338
31	0x3f808433	1.0040344
32	0x3f75a9c4	0.95962167
33	0x3f68bd3c	0.9091375
34	0x3f5aea20	0.85513496
35	0x3f5095b5	0.81478435
36	0x3f4de46d	0.80426675
37	0x3f8095f4	1.0045762
38	0x3f5cdb76	0.8627237
39	0x3f7db94e	0.9911088
40	0x3f7935e4	0.97347856
41	0x3f4985ca	0.7871977
42	0x3f87eb64	1.061871
43	0x3f73c7e5	0.9522689
44	0x3f3b8b04	0.73258996
45	0x3f65154b	0.89485615
46	0x3f590252	0.84769166
47	0x3f57d71b	0.843126
48	0x3f64c779	0.8936687
49	0x3f96bb36	1.1775882
50	0x3f455493	0.77082175
51	0x3f73a9d1	0.95180994
52	0x3f4b4a9f	0.7941074
53	0x3f507338	0.8142581
54	0x3f845024	1.0336957
55	0x3f67d07f	0.90552515
56	0x3f807b1f	1.0037574
57	0x3f5fbbf5	0.87396175
58	0x3f7e72bb	0.99393815
59	0x3f8242bc	1.0176616
60	0x3f73e56c	0.95271945
61	0x3f9b0f6e	1.2114084
62	0x3f894b18	1.0726042
63	0x3f33fde5	0.7030929

net.1.bias f4 [64]
0	0x3e5e3548	0.21700013
1	0x3d1ed885	0.038780708
2	0x3ca4b643	0.02010644
3	0x3da12e4f	0.07870161
4	0xbd61e53e	-0.055150263
5	0x3eb86c83	0.36020288
6	0x3d9adcae	0.075616226
7	0x3d1549f3	0.036447477
8	0x3beeab00	0.0072835684
9	0xbd239f1f	-0.03994667
10	0x3d7c194a	0.061547555
11	0x3def4bbf	0.11684369
12	0x3cfb3d4b	0.030668875
13	0xbd018e91	-0.031630103
14	0x3d88094b	0.066423975
15	0xbd4c3f16	-0.04986485
16	0x3de7e8b4	0.113236815
17	0xbd1f875c	-0.038947448
18	0x3e17dcf6	0.14830384
19	0x3c821a95	0.015881816
20	0x3d95a447	0.07306724
21	0x3a210bdd	0.00061434304
22	0xbd509b7f	-0.050929543
23	0x3ced6a88	0.028981462
24	0xbd131b34	-0.035914615
25	0x3e13aaab	0.14420573
26	0xbd74510b	-0.0596476
27	0x3dbe66e8	0.092969716
28	0xbda816f0	-0.082075
29	0xb9d39d3c	-0.00040362205
30	0x3d492900	0.049111366
31	0xbdb14628	-0.08655959
32	0x3dc367d7	0.0954129
33	0xbd46004c	-0.048340127
34	0xbc3dd711	-0.01158692
35	0xbd5f0063	-0.05444373
36	0xbd9830d2	-0.07431187
37	0x3d2c82bf	0.042116877
38	0xbdababdd	-0.0838239
39	0xbd773f7b	-0.060363274
40	0x3d097edc	0.03356825
41	0xbd9087b8	-0.07057136
42	0xbd841f71	-0.064513095
43	0x3d067cd5	0.032833893
44	0x3b585b20	0.00330133
45	0xbc00b90c	-0.007856619
46	0x3c5b0e10	0.013370052
47	0xbcad3df0	-0.021147698
48	0xbcd0b737	-0.025477989
49	0x3e148720	0.14504671
50	0xbc746c97	-0.014918468
51	0x3caabb68	0.020841315
52	0xbc95b4b3	-0.01827464
53	0x3cdd0faa	0.026985008
54	0xbe785292	-0.24250248
55	0x3dc909eb	0.09816345
56	0x3d59b129	0.05314747
57	0xbc82d87a	-0.015972365
58	0x3db60936	0.088884756
59	0x3d857629	0.06516678
60	0x3d2dbdc8	0.042417318
61	0x3ec7b800	0.39007568
62	0xbe083a5d	-0.13303514
63	0xbd9e10c5	-0.07718042

net.1.running_mean f4 [64]
0	0xbeb987fd	-0.36236563
1	0xbea4f892	-0.32220894
2	0x3d66fa1d	0.05639087
3	0x3e6f2484	0.23353773
4	0xbe1d6a38	-0.1537255
5	0x3d8c0870	0.06837547
6	0xbe2ebef9	-0.17065038
7	0x3dd8c2dd	0.10584042
8	0x3d94638f	0.07245552
9	0xbc267fea	-0.010162333
10	0x3e1adf9d	0.15124364
11	0x3e906d1e	0.2820825
12	0x3f1b1a15	0.60586673
13	0x3ee5e409	0.4490054
14	0xbf2ac958	-0.66713476
15	0x3c619d79	0.013770455
16	0xbe8126da	-0.25224954
17	0x3ee5a35d	0.448512
18	0xbdf9fd01	-0.1220646
19	0x3e879ba8	0.26485944
20	0x3da3d178	0.07998937
21	0xbeb1beea	-0.34715968
22	0x3e6456a2	0.22298673
23	0x3f0d6550	0.55232716
24	0xbeca2422	-0.39480692
25	0xbcceae31	-0.025229545
26	0xbb856c55	-0.004071752
27	0x3ddd7b97	0.108145885
28	0xbe03c936	-0.12869725
29	0x3dac8d1b	0.08425351
30	0x3d372041	0.044708494
31	0x3dd37ae1	0.10326172
32	0xbf13a114	-0.5766766
33	0x3e61994e	0.22031137
34	0x3eebb04b	0.46032938
35	0xbf3ad8d1	-0.72987086
36	0x3ea6c550	0.32572412
37	0x3e91f7ba	0.28509313
38	0x3f250d95	0.6447385
39	0x3dc4e225	0.09613446
40	0xbe79f813	-0.24411039
41	0x3da246b0	0.07923639
42	0x3f4ec7ea	0.80773795
43	0x3e108b45	0.14115627
44	0xbe5e18d8	-0.21689165
45	0xbcd207d3	-0.025638497
46	0x3ddf015b	0.108889304
47	0xbef40251	-0.47658017
48	0xbd0ddc62	-0.034634
49	0x3efdee8a	0.49596053
50	0xbe93b6b8	-0.2885034
51	0x3de41303	0.11136439
52	0x3ec288ff	0.37995145
53	0x3da80912	0.08204855
54	0x3e196e71	0.14983536
55	0x3e122d0b	0.14274995
56	0x3a2e241b	0.00066429534
57	0xbe4532f2	-0.19257715
58	0x3e0ff788	0.1405927
59	0xbcf37b46	-0.029721867
60	0xbc2fd744	-0.010732476
61	0xbe83221c	-0.2561196
62	0x3eaab9a4	0.33344758
63	0x3de0090e	0.10939227

net.1.running_var f4 [64]
0	0x3cd99f7c	0.026565306
1	0x3e5d1c4d	0.21592827
2	0x3e55e614	0.20888549
3	0x3e13115c	0.14362091
4	0x3df6bd97	0.1204788
5	0x3e5fb52f	0.2184646
6	0x3ddd8dba	0.10818048
7	0x3e349ea8	0.17638648
8	0x3e4a57c7	0.19760047
9	0x3e5672da	0.2094225
10	0x3e70c452	0.2351239
11	0x3db9a88a	0.090653494
12	0x3e8aaaa4	0.27083313
13	0x3e0c3a57	0.1369413
14	0x3ea4f00c	0.3221439
15	0x3e648413	0.22316007
16	0x3e056d5e	0.13030002
17	0x3e8ccfae	0.27502197
18	0x3e07d94d	0.13266487
19	0x3e94521d	0.28968897
20	0x3e520135	0.20508273
21	0x3e2c2595	0.16811211
22	0x3e7d0930	0.24710536
23	0x3ea0d40d	0.31411782
24	0x3e8ba5de	0.27274984
25	0x3e2c25aa	0.16811243
26	0x3e481616	0.19539675
27	0x3dc3552e	0.09537731
28	0x3eaba1ff	0.3352203
29	0x3eab53fc	0.33462512
30	0x3de0794b	0.10960635
31	0x3e0cf454	0.13765079
32	0x3e5cb925	0.21555002
33	0x3e33c4fc	0.17555612
34	0x3e5166c8	0.20449364
35	0x3dffc153	0.124880455
36	0x3e8ffd9a	0.2812317
37	0x3e47ef1a	0.19524804
38	0x3e47a734	0.19497377
39	0x3e6a2e9e	0.22869346
40	0x3e6154c2	0.22004989
41	0x3e61e8fa	0.2206153
42	0x3e30fd71	0.1728418
43	0x3e86b622	0.2631083
44	0x3ec123d8	0.3772266
45	0x3e8cc8d8	0.27496982
46	0x3ecbe787	0.3982508
47	0x3e9c8d7a	0.30576688
48	0x3de762c2	0.112981334
49	0x3db80ea2	0.08987166
50	0x3e9aebed	0.30258122
51	0x3e507acb	0.20359342
52	0x3e518dec	0.20464295
53	0x3e1b62a1	0.15174343
54	0x3d90c3a9	0.07068569
55	0x3e8658d2	0.2623964
56	0x3e5e330b	0.21699159
57	0x3e52f708	0.20602047
58	0x3d5fc395	0.05462988
59	0x3e069901	0.13144304
60	0x3e4be09e	0.19909903
61	0x3e4efdca	0.20214
62	0x3e07e808	0.13272107
63	0x3e92ef4c	0.28698194

net.3.weight f4 [128, 64]
0	0x3e43fe54	0.19139987
1	0x3d9e904c	0.07742366
2	0x3d8f896e	0.070086345
3	0xbbf13dc7	-0.0073621008
4	0x3c47744a	0.012173722
5	0x3d7acccf	0.061230477
6	0xbda0d6f5	-0.078535
7	0xbd29448e	-0.041325144
8	0xbd20251b	-0.039097887
9	0xbd1abffb	-0.037780743
10	0x3ddaa632	0.106762305
11	0xbd808470	-0.062752604
12	0xbd736641	-0.05942369
13	0xbbaddfa4	-0.005306201
14	0x3d8c9b80	0.06865597
15	0xbd22509a	-0.03962765
16	0x3d26ad01	0.040692333
17	0x3d988c88	0.07448679
18	0x3e1565b6	0.14589581
19	0x3d51b3ec	0.051196977
20	0x3cf312b5	0.029672006
21	0x3d016d8a	0.031598605
22	0x3da9da12	0.08293547
23	0x3d8f0ca4	0.06984833
24	0x3e025680	0.1272831
25	0x3e48c85b	0.1960768
26	0xbcd7c157	-0.026337309
27	0xbdd29342	-0.102819934
28	0xbd79232a	-0.06082455
29	0x3d0ce657	0.034399357
30	0x3d8e2a66	0.069416806
31	0x3d793979	0.060845826
32	0x3cc18b2d	0.023625934
33	0x3da6ca5d	0.081440665
34	0xbd7fc033	-0.062439155
35	0x3dbcdee1	0.09222198
36	0xbd0f0e71	-0.03492588
37	0xbd1fbe34	-0.03899975
38	0xbd586e63	-0.052839648
39	0xbc237552	-0.009976702
40	0x3de984c5	0.11402277
41	0xbd073569	-0.03300992
42	0x3dd32572	0.103098765
43	0xbe049971	-0.12949158
44	0x3cb79fde	0.022415098
45	0x3d4d0734	0.050055698
46	0x3db47f1b	0.08813306
47	0x3c53212c	0.012886327
48	0xbd4e62d2	-0.05038721
49	0x3e3ba9da	0.18326512
50	0xbd4ebbc4	-0.050472036
51	0xbcbc765e	-0.02300566
52	0x3da5ca3f	0.08095216
53	0x3c577ad2	0.013151841
54	0xbdbaaa9e	-0.09114574
55	0x3de7fc1b	0.11327382
56	0xbbfa0e48	-0.007631097
57	0xbd89a3e6	-0.06720714
58	0xbc8db79a	-0.017299462
59	0xbd85feea	-0.065427616
60	0xbd60a053	-0.054840397
61	0xbda30175	-0.07959262
62	0x3dcecb21	0.100973375
63	0xbd388f74	-0.045058683
64	0x3e219344	0.15778834
65	0x3da46217	0.08026522
66	0xbd149cfd	-0.03628253
67	0xbdf874f9	-0.12131686
68	0x3cb752c6	0.022378337
69	0x3d0c7a1f	0.03429615
70	0xbdfeac5f	-0.12435221
71	0x3d5a939f	0.05336344
72	0x3dd46934	0.103716284
73	0xbc4c31e0	-0.012463063
74	0xbd80c366	-0.06287269
75	0xbda552ce	-0.08072434
76	0xbdb3ed8c	-0.08785543
77	0xbb231bee	-0.0024888474
78	0x3c0ffbe2	0.008788081
79	0xbdb8ff3f	-0.09033059
80	0xbc474d6e	-0.012164457
81	0x3dbe4022	0.09289576
82	0xbde44bfc	-0.11147305
83	0xbceb35ba	-0.028712142
84	0xbd201516	-0.03908261
85	0x3e026e14	0.12737304
86	0xbc2506a5	-0.010072385
87	0xbd8815bb	-0.0664477
88	0x3d3b9b68	0.045802504
89	0x3da32848	0.079666674
90	0xbce8e58a	-0.028429765
91	0xbd9eb031	-0.077484496
92	0x3c00b4f4	0.007855643
93	0xbcb3788b	-0.021908065
94	0x3db27134	0.08712998
95	0xbd616064	-0.055023566
96	0x3b44b4f1	0.0030015076
97	0xbda81c22	-0.08208491
98	0xbd94619d	-0.07245181
99	0xbd850b0b	-0.06496247
100	0x3cdd74ec	0.027033292
101	0xbded5552	-0.11588539
102	0xbddef24a	-0.10886057
103	0x3c96eb20	0.018422663
104	0xbdc3a06e	-0.09552084
105	0xbd793668	-0.0608429
106	0xbdf18782	-0.11793424
107	0x3d8d766c	0.06907353
108	0x3df9701c	0.12179586
109	0xbdcf53fa	-0.10123439
110	0x3d357f70	0.044310987
111	0x3dc6c8c9	0.097062655
112	0xbc2ef789	-0.010679134
113	0x3e655765	0.2239662
114	0x3e000553	0.12502031
115	0xbd98acf0	-0.0745486
116	0x3dc3747b	0.09543701
117	0x3c0de85c	0.008661356
118	0x3df14a41	0.11781741
119	0xbd8fce4c	-0.0702177
120	0xbd4ad756	-0.049521767
121	0x3d5361af	0.05160683
122	0x3db90b63	0.09035375
123	0x3c678c99	0.014132642
124	0xbd9d21c2	-0.076724544
125	0xbd883523	-0.0665076
126	0xbd69b455	-0.057056744
127	0xbd45ced5	-0.048292954
128	0xbcf18fb1	-0.029487463
129	0xbd042404	-0.03226091
130	0x3c9dc7e9	0.019260364
131	0x3c5215c9	0.012822577
132	0xbd4dc0a3	-0.05023254
133	0x3e306789	0.17226996
134	0x3daeaf96	0.08529584
135	0x3bc16019	0.0059013483
136	0xbcf7848b	-0.030214569
137	0x3d6bac30	0.057537258
138	0x3d08e537	0.03342172
139	0x3e1c6135	0.15271457
140	0x3d30a513	0.043126177
141	0x3ce5f638	0.028071508
142	0xbd2e9908	-0.04262641
143	0x3d23757f	0.039906975
144	0x3de3de57	0.11126392
145	0x3c902f34	0.017600633
146	0xbc63bbe3	-0.013899776
147	0xbd334966	-0.04377117
148	0xbce51ccd	-0.027967835
149	0xbdcbf9b4	-0.099597365
150	0x3da38007	0.07983404
151	0x3d8375d1	0.06418956
152	0x3d10b05b	0.035324436
153	0x3e25663b	0.16152279
154	0xbd0ce0ca	-0.034394063
155	0x3dbe99d8	0.09306687
156	0xbd4e9a11	-0.050439898
157	0xbb24df76	-0.0025157607
158	0xbc98f4a7	-0.018671347
159	0x3d4f857b	0.050664406
160	0xbdcb68c7	-0.09932094
161	0x3d1eab30	0.038737476
162	0x3d5d367b	0.054007035
163	0xbdacb296	-0.084325
164	0xbcb1e0d2	-0.021713648
165	0x3d8c18ff	0.06840705
166	0x3e0d9d1a	0.1382946
167	0x3d7c1dc8	0.06155184
168	0xbd486a74	-0.048929647
169	0xbc109a1d	-0.008825806
170	0xbce3c9b7	-0.027806146
171	0x3d9962c5	0.07489542
172	0xbd37dd87	-0.044889
173	0xbd2aa949	-0.04166535
174	0xbd51819d	-0.051149
175	0xbd79f8e3	-0.061028372
176	0x3d2d326f	0.042284425
177	0x3d12f5b3	0.03587885
178	0xbd0687c5	-0.032844324
179	0x3db57aec	0.08861336
180	0x3cb121d5	0.021622578
181	0x3d0d9148	0.03456238
182	0xbc8e0497	-0.017336173
183	0xbd836bc3	-0.06417038
184	0x3dd59350	0.10428488
185	0xbce7136e	-0.028207507
186	0x3d868613	0.065685414
187	0x3d86451d	0.06556151
188	0x3d3b2b15	0.045695383
189	0x3e89c4c1	0.26907924
190	0x3b6c1823	0.0036025129
191	0x3d260fa4	0.04054226
192	0x3cecdd2d	0.028914059
193	0xbdeff087	-0.11715799
194	0x3dbaa75d	0.09113953
195	0xbdd3986d	-0.10331807
196	0xbdc7e0df	-0.09759688
197	0xbd76a216	-0.06021317
198	0xbe152bd7	-0.14567505
199	0x3d894c53	0.06704011
200	0x3d124ee6	0.035719775
201	0x3dd0bd55	0.10192362
202	0x3d235398	0.039874643
203	0xbe21a043	-0.15783791
204	0x3d483b2a	0.04888455
205	0xbd031eef	-0.032011922
206	0xbd1727ad	-0.036903072
207	0xbc72c4e8	-0.014817454
208	0x3d99c5b0	0.07508409
209	0x3c3be4fc	0.011468168
210	0xba5d0101	-0.00084306306
211	0x3cd33771	0.025783272
212	0x3c41c6de	0.011827199
213	0x3e164663	0.14675288
214	0xbde791d9	-0.11307115
215	0x3d317c88	0.043331653
216	0x3d15bcff	0.036557194
217	0x3e00e4c3	0.12587266
218	0xbd2a32b6	-0.041552268
219	0xbd62332a	-0.055224575
220	0xbcd82a70	-0.026387423
221	0xbdc35b01	-0.09538842
222	0x3dbc1680	0.09183979
223	0xbd660b50	-0.056163132
224	0xbc3367fd	-0.010950086
225	0x3dde62ac	0.10858664
226	0x3dde20d8	0.10846108
227	0x3d84de9f	0.06487774
228	0x3d5469a9	0.051858578
229	0x3d861d5b	0.06548568
230	0x3df096cb	0.117475115
231	0x3d9a69b8	0.075396955
232	0xbe0049b4	-0.12528116
233	0xbda643f1	-0.081184275
234	0x3dfe1f19	0.12408275
235	0x3c9c9b44	0.019117005
236	0x3bdad04f	0.0066776644
237	0x3dc38d4b	0.09548434
238	0x3c9cd22b	0.019143185
239	0xbcd6c73d	-0.026218051
240	0x3dea0bc2	0.11428024
241	0xbd063ea2	-0.032774575
242	0x3c44ff8c	0.012023818
243	0x3d8fa107	0.070131354
244	0x3dca36e4	0.09873751
245	0xbcd0ef5d	-0.025504762
246	0x3dd801b5	0.105472006
247	0x3d9d67ee	0.07685839
248	0xbdf77baa	-0.12084134
249	0xbd6e05f8	-0.05811116
250	0xbd10cea0	-0.035353303
251	0x3c636ac5	0.013880436
252	0x3d512fec	0.051071092
253	0xbd1471ea	-0.03624145
254	0x3d0a025e	0.033693664
255	0x3d8a3e74	0.06750193

net.3.bias f4 [128]
0	0x3caab62e	0.020838823
1	0x398fbbe5	0.00027415078
2	0x3d341196	0.043962084
3	0x3d786aed	0.060648847
4	0x3dca863b	0.09888884
5	0xbd96be34	-0.07360497
6	0xbdac7582	-0.0842085
7	0xbd8d727c	-0.06906602
8	0x3da2fc1a	0.07958241
9	0x3d01a2a3	0.031649243
10	0xbd542aac	-0.051798508
11	0xbbd07e5b	-0.006362719
12	0x3d62d2cb	0.05537681
13	0xbca0ad9a	-0.01961403
14	0xbd416d25	-0.04722323
15	0x3d596861	0.05307806
16	0x3da9c856	0.08290164
17	0x3d893456	0.066994354
18	0x3b4ecd52	0.0031555486
19	0xbd513a6c	-0.051081106
20	0x3daa4bb4	0.083152205
21	0xbd7cc879	-0.061714623
22	0xbce18440	-0.027528882
23	0x3c6ad556	0.01433309
24	0xbd85e6bd	-0.065381505
25	0x3c8451e9	0.016152339
26	0x3d2dfde2	0.04247845
27	0xbcd843ab	-0.026399454
28	0xbd9bb7c8	-0.07603413
29	0xbcd24bf8	-0.02567099
30	0x3d7460c4	0.059662595
31	0xbd892715	-0.066969074
32	0xbc71d1e0	-0.014759511
33	0x3deb0f60	0.11477542
34	0xbcb12dcb	-0.021628281
35	0xbd93b201	-0.07211686
36	0x3d9e491f	0.077287905
37	0xbd2a09e4	-0.04151334
38	0x3d89d10b	0.06729325
39	0xbccddbe5	-0.025129268
40	0x3d18ee70	0.037336767
41	0x3df181c1	0.11792327
42	0x3d5b7172	0.053574987
43	0xbc1b1041	-0.009464324
44	0x3ce6848b	0.028139373
45	0xbc844f80	-0.01615119
46	0x3cf5e115	0.030014554
47	0xbcc0027f	-0.02343869
48	0x3c96522b	0.018349728
49	0x3dd26fd4	0.10275236
50	0xbde94a0e	-0.11391078
51	0xbdb5107b	-0.08841034
52	0xbd2f0725	-0.042731423
53	0x3d287c90	0.041134417
54	0xbdd049e1	-0.10170341
55	0x3d979fe7	0.07403546
56	0xbccc94fb	-0.024973383
57	0xbc87ecc7	-0.016592396
58	0xbdc06258	-0.093937576
59	0x3df0129b	0.11722299
60	0xbdbe1f13	-0.09283271
61	0xbcf53e1f	-0.029936848
62	0x3da2b871	0.07945336
63	0x3daf2510	0.08551991
64	0x3d282ded	0.041059423
65	0xbd8c6a92	-0.06856264
66	0x3de5e308	0.112249434
67	0xbd33bbf0	-0.043880403
68	0x3c46cea1	0.012134225
69	0xbb92e363	-0.004482673
70	0x3d75c0cc	0.05999832
71	0xbddb7898	-0.10716361
72	0x3d4b12a6	0.04957833
73	0xbd9a1a40	-0.07524538
74	0x3c9408ef	0.018070666
75	0xbd6b2302	-0.057406433
76	0x3d91ff8b	0.07128819
77	0x3cb7d76a	0.022441585
78	0xbc8880a3	-0.016662901
79	0xbd66ed11	-0.056378428
80	0xbdd98c18	-0.10622424
81	0x3d936058	0.071961105
82	0xbd2129e7	-0.0393466
83	0xbd3b6bf4	-0.04575725
84	0x3ce5fb33	0.028073883
85	0x3dc96570	0.09833801
86	0xbbdf0d16	-0.00680698
87	0x3ce3cc87	0.027807487
88	0x3c624d18	0.013812326
89	0x3dd4a616	0.10383241
90	0x3dc39c77	0.09551328
91	0x3d85d8c1	0.06535483
92	0xbdb97ec0	-0.09057379
93	0xbcc602be	-0.02417123
94	0x3a76e90c	0.0009418882
95	0xbdee9d23	-0.11651065
96	0x3c0d1c79	0.008612745
97	0x3d0dd3a0	0.03462565
98	0xbdcddaae	-0.100514755
99	0xbd7e443a	-0.062076785
100	0x3dffd5a4	0.124919206
101	0xbd37beb7	-0.044859614
102	0xbdaec3b4	-0.08533421
103	0xbd9fc43a	-0.07801099
104	0xbc7dcb39	-0.015490347
105	0xbd337a8f	-0.043818053
106	0xbbfd78d4	-0.007735351
107	0x3da93462	0.08261944
108	0x3d6493c7	0.055804994
109	0xbd757d29	-0.059933815
110	0xbda70fd0	-0.08157313
111	0xbdb415f3	-0.08793249
112	0xbdbd8ae3	-0.09255006
113	0x3db2d66e	0.087323055
114	0x3d9c8cd9	0.07644052
115	0xbd7e5287	-0.062090423
116	0xbdd6372a	-0.104597405
117	0xbd261351	-0.040545765
118	0xbd9a25b7	-0.07526725
119	0xbddbfe7f	-0.10741901
120	0x3ca63ab5	0.020291666
121	0x3df022c6	0.117253825
122	0x3db0a21f	0.08624672
123	0xbde45c16	-0.111503765
124	0x3d211f2e	0.039336376
125	0x3d9865b9	0.07441277
126	0x3dfc9eff	0.123350136
127	0x3dacb87b	0.08433624

net.4.weight f4 [128]
0	0x3f801433	1.0006164
1	0x3f80d203	1.006409
2	0x3f8aca36	1.084296
3	0x3f79ff86	0.9765552
4	0x3f7794c6	0.96711385
5	0x3f6e9b37	0.9320559
6	0x3f646f8e	0.8923272
7	0x3f6d69f0	0.9273977
8	0x3f75d2ef	0.96024984
9	0x3f6357e8	0.8880601
10	0x3f82c976	1.0217731
11	0x3f6bbf29	0.9208856
12	0x3f546f90	0.8298273
13	0x3f837863	1.0271114
14	0x3f7777df	0.96667284
15	0x3f862f33	1.0483154
16	0x3f4ee597	0.80819076
17	0x3f7d4d65	0.9894622
18	0x3f6c69a6	0.92348707
19	0x3f66c08d	0.9013756
20	0x3f6a1032	0.9143096
21	0x3f7acefb	0.9797208
22	0x3f67ffc8	0.90624666
23	0x3f6b98b6	0.92029893
24	0x3f794139	0.97365147
25	0x3f6f18ae	0.93397033
26	0x3f5cb283	0.8620989
27	0x3f7645c1	0.96200186
28	0x3f5cdad1	0.8627139
29	0x3f5c51cc	0.8606231
30	0x3f8dc0bc	1.1074443
31	0x3f666054	0.89990735
32	0x3f67128d	0.9026268
33	0x3f82687f	1.018814
34	0x3f7a5168	0.97780466
35	0x3f7e54cb	0.99348134
36	0x3f8066e5	1.0031401
37	0x3f81b789	1.0134135
38	0x3f6c173d	0.9222296
39	0x3f6ebf58	0.9326072
40	0x3f8572eb	1.0425695
41	0x3f6bb34d	0.92070466
42	0x3f8303ea	1.023557
43	0x3f80d309	1.0064403
44	0x3f800a3e	1.0003126
45	0x3f74d64c	0.9563949
46	0x3f74cf54	0.9562886
47	0x3f7adcb7	0.97993034
48	0x3f750864	0.9571593
49	0x3f719f43	0.9438364
50	0x3f79075a	0.9727684
51	0x3f69e3b0	0.9136305
52	0x3f7d645a	0.9898125
53	0x3f78b4cf	0.9715089
54	0x3f730f82	0.9494554
55	0x3f717c1f	0.9433002
56	0x3f699f56	0.9125875
57	0x3f70dc4d	0.9408615
58	0x3f7d53dc	0.98956084
59	0x3f819517	1.0123624
60	0x3f6a59e2	0.915434
61	0x3f849b95	1.035998
62	0x3f6c1406	0.92218053
63	0x3f713069	0.94214493
64	0x3f7c443d	0.98541623
65	0x3f8335ce	1.0250795
66	0x3f7136c6	0.942242
67	0x3f7f919d	0.99831563
68	0x3f8c4b82	1.0960543
69	0x3f62a7bc	0.8853719
70	0x3f76d0b5	0.9641221
71	0x3f70e8a5	0.9410499
72	0x3f6a1a06	0.9144596
73	0x3f758e6b	0.9592044
74	0x3f840389	1.0313579
75	0x3f7e47f2	0.9932853
76	0x3f81a698	1.0128965
77	0x3f58733b	0.8455083
78	0x3f815107	1.0102853
79	0x3f8b83b4	1.0899568
80	0x3f8229a3	1.0168957
81	0x3f63df56	0.8901266
82	0x3f4ce913	0.80043143
83	0x3f7366f6	0.9507898
84	0x3f70beee	0.94041336
85	0x3f8709d3	1.0549873
86	0x3f801d30	1.0008907
87	0x3f789b13	0.97111624
88	0x3f6e2982	0.93032086
89	0x3f7cc5cd	0.9873932
90	0x3f8384ce	1.0274904
91	0x3f7f1209	0.99636894
92	0x3f7ec0c6	0.995129
93	0x3f6abc6e	0.9169377
94	0x3f70aa18	0.9400954
95	0x3f7bd6b9	0.98374516
96	0x3f821a1c	1.0164218
97	0x3f5a19a5	0.8519538
98	0x3f68020c	0.90628123
99	0x3f81e72e	1.0148675
100	0x3f82a392	1.0206168
101	0x3f705d6c	0.9389255
102	0x3f8e0d4a	1.1097806
103	0x3f793ce3	0.9735853
104	0x3f75c3e3	0.96002024
105	0x3f657c51	0.89642817
106	0x3f7b0bc5	0.98064834
107	0x3f76ea7e	0.96451557
108	0x3f6c5d62	0.9232999
109	0x3f824c31	1.0179502
110	0x3f75e9c8	0.96059847
111	0x3f832bcf	1.0247744
112	0x3f7e7cb3	0.99409026
113	0x3f7a72cc	0.97831416
114	0x3f782fbb	0.9694783
115	0x3f827907	1.0193185
116	0x3f83f789	1.0309917
117	0x3f6399a4	0.8890631
118	0x3f70c42b	0.9404933
119	0x3f67181c	0.90271163
120	0x3f799b6c	0.9750278
121	0x3f79ab04	0.97526574
122	0x3f846ada	1.0345109
123	0x3f7893d7	0.97100586
124	0x3f733f12	0.9501811
125	0x3f80e188	1.0068827
126	0x3f7ccaf7	0.987472
127	0x3f75a5a1	0.95955855

net.4.bias f4 [128]
0	0xbe2c544f	-0.16829036
1	0xbc88173f	-0.016612647
2	0xbc5725c9	-0.013131567
3	0xbda6999f	-0.0813477
4	0x3dbd2a90	0.09236634
5	0xbcf4a9ae	-0.029866066
6	0xbdfc5fe9	-0.12322981
7	0xbca4d874	-0.020122744
8	0xbd8846bd	-0.06654117
9	0xbd3c5cb7	-0.045986857
10	0xbda6c405	-0.081428565
11	0xbe1af00d	-0.15130635
12	0xbdeb64bb	-0.11493822
13	0xbcec19d6	-0.028820913
14	0xbe112436	-0.1417397
15	0xbdab2145	-0.08355955
16	0xbdd91b30	-0.10600889
17	0x3c9cf4ae	0.019159641
18	0x3d632105	0.05545141
19	0xbe0bb691	-0.13643862
20	0x3e5de9f3	0.21671276
21	0xbe92fa61	-0.2870665
22	0xbd9c865c	-0.076428145
23	0xbd17180f	-0.03688818
24	0x3d00000e	0.031250052
25	0x3e2e4b5b	0.17020933
26	0xbd4ac79c	-0.04950677
27	0xbe41a472	-0.18910387
28	0xbe01c34a	-0.12672153
29	0xbd2c0b82	-0.042003162
30	0xbe121bbc	-0.14268392
31	0x3b8479fd	0.0040428624
32	0x3d889050	0.066681504
33	0xbd83a71f	-0.0642836
34	0xbdf2f8c5	-0.11863855
35	0x3c9474b5	0.018122056
36	0xb828b5e8	-4.0223735e-05
37	0xbde5daf4	-0.112234026
38	0x3d9a043c	0.07520339
39	0xbbfbb409	-0.007681374
40	0xbb82379d	-0.003973915
41	0x3cd5292d	0.02602061
42	0xbd009e33	-0.03140087
43	0x3c4a598f	0.012350454
44	0xbea6016b	-0.32422957
45	0x3d9ce2f0	0.076604724
46	0x3ea37fbd	0.31933394
47	0xbe71c3b1	-0.23609807
48	0xbdc110c6	-0.094270274
49	0xbdd39b92	-0.10332407
50	0x3bde601a	0.0067863585
51	0xbcd19675	-0.025584439
52	0xbd98bdd9	-0.074580856
53	0x3e5c3ae1	0.21506836
54	0x3bd947bc	0.006630866
55	0x3d6c6bac	0.05771987
56	0x3ce7a750	0.028278023
57	0xbc6b9f91	-0.014381305
58	0x3c40b7c1	0.01176256
59	0xbdc993b7	-0.098426275
60	0xbd233e8d	-0.039854575
61	0xbda9145d	-0.08255837
62	0x3e41c074	0.18921071
63	0x3cbd5b91	0.023114951
64	0x3da99c44	0.082817584
65	0x3db437f6	0.08799736
66	0xbde424b6	-0.111398146
67	0xbea20fdc	-0.31652725
68	0xbea24c55	-0.31698862
69	0xbc60fb68	-0.013731815
70	0xbdd7b20f	-0.10532009
71	0x3b5d72bc	0.003379031
72	0xbe4aebca	-0.19816509
73	0xbd1ca9a4	-0.03824772
74	0x3da4b347	0.08042007
75	0x3eae5f9c	0.3405732
76	0xbdeb4f16	-0.11489694
77	0xbd671926	-0.056420468
78	0xbe1dc64d	-0.15407677
79	0xba0a9361	-0.00052862434
80	0x3c1c56cb	0.009542177
81	0xbd3db3a0	-0.046313882
82	0xbe02fbe8	-0.12791407
83	0x3e86f593	0.26359233
84	0x3d1807ad	0.037116695
85	0xbb3afee9	-0.0028533286
86	0x3d2344fa	0.039860703
87	0x3ca2ef0b	0.019889375
88	0x3c0cd07e	0.00859463
89	0xbe9ce316	-0.30642003
90	0xbd564782	-0.05231429
91	0xbdecb122	-0.11557223
92	0x3d215da3	0.03939594
93	0x3c6b817d	0.014374134
94	0xbd13aac5	-0.03605153
95	0x3d193bf3	0.037410688
96	0xbdec8c6b	-0.1155022
97	0xbcb585da	-0.022158552
98	0xbe1c35e3	-0.15254931
99	0xbe0a1763	-0.13485484
100	0xbdaa37ef	-0.0831145
101	0xbe0c5577	-0.13704477
102	0xbe1f270f	-0.15542243
103	0xbc1efa8b	-0.009703289
104	0xbb74b700	-0.0037340522
105	0x3b875e19	0.0041310904
106	0xbd613065	-0.054977793
107	0xbcf3bcef	-0.029753176
108	0x3d7e6150	0.062104523
109	0xbdaf1450	-0.08548796
110	0xbd24a1a4	-0.040193215
111	0x3d42aa59	0.047525737
112	0x3d1621ce	0.036653332
113	0xbc470075	-0.012146105
114	0xbc9d3591	-0.019190582
115	0xbd780338	-0.060549945
116	0x3d57ba75	0.052668054
117	0xbd1c4a67	-0.038156893
118	0xbda6fc06	-0.081535384
119	0xbd9865b0	-0.0744127
120	0xbe22e62a	-0.15908113
121	0x3d548b1a	0.05189047
122	0x3de935a2	0.11387183
123	0xbea2e104	-0.31812298
124	0xbda14dbe	-0.07876156
125	0x3db4613f	0.08807611
126	0x3cbf6fb0	0.023368686
127	0x3e203a5f	0.15647267

net.4.running_mean f4 [128]
0	0x3f05bd50	0.5224199
1	0xbd875e03	-0.06609728
2	0x3f355058	0.7082572
3	0x3e739ef1	0.237911
4	0xbe26aded	-0.16277285
5	0x3e7bef6a	0.24603048
6	0xbe21bf19	-0.15795554
7	0xbf3e38ae	-0.74305236
8	0x3e006714	0.12539321
9	0xbe0a15f1	-0.13484932
10	0xbe74b60c	-0.2389757
11	0x3d8e3747	0.06944137
12	0x3e3cf9b2	0.18454626
13	0xbeae30c8	-0.34021592
14	0xbe7c2ea8	-0.24627173
15	0xbe4bb797	-0.19894253
16	0x3d5b8649	0.05359486
17	0xbf092476	-0.5357126
18	0xbe7c5e8e	-0.24645445
19	0x3f076f95	0.52904636
20	0xbf0f7cc1	-0.56049734
21	0x3f07019c	0.5273683
22	0x3ef98d55	0.4874064
23	0xbe2bfdc9	-0.1679603
24	0xbe821307	-0.25405142
25	0xbf014354	-0.5049336
26	0x3e99712c	0.29969156
27	0x3e046a00	0.12931061
28	0x3eea2aa2	0.4573565
29	0x3cb642fd	0.02224874
30	0xbe42b933	-0.1901596
31	0xbcb76a51	-0.022389563
32	0x3d5d6640	0.05405259
33	0xbe213345	-0.15742214
34	0x3cbf0efb	0.023322573
35	0xbf6448e9	-0.8917375
36	0x3d9a04d0	0.07520449
37	0x3e504efd	0.20342632
38	0xbee9fa6e	-0.45698875
39	0xbe6aa74d	-0.22915383
40	0x3f0ebbb0	0.5575514
41	0xbf119988	-0.56874895
42	0xbf0e822f	-0.55667394
43	0xbe31a46c	-0.17347878
44	0x3f2ba391	0.6704646
45	0xbe91acef	-0.2845225
46	0xbf0c9072	-0.54907906
47	0x3f058c64	0.52167344
48	0xbe3a9dd0	-0.18224263
49	0x3f0c2fed	0.5476063
50	0xbef49f3f	-0.47777745
51	0xbd5928e8	-0.053017527
52	0x3e891d82	0.26780325
53	0xbf4c5ed6	-0.7983221
54	0xbf504b02	-0.8136445
55	0xbe1327a7	-0.14370595
56	0xbe955d0b	-0.2917255
57	0xbef9f003	-0.48815927
58	0xbc548c24	-0.012972865
59	0x3e9f447f	0.31106946
60	0xbf030efb	-0.51194733
61	0xbe8950ce	-0.26819462
62	0xbf130170	-0.5742407
63	0x3e2be191	0.16785266
64	0xbe9f8795	-0.31158128
65	0xbe8846b9	-0.26616457
66	0x3e56bd47	0.20970641
67	0x3ecf7bca	0.4052413
68	0x3f38dc24	0.7221091
69	0xbe937cbb	-0.288061
70	0x3e69b21c	0.2282185
71	0x3e9ae5c8	0.30253434
72	0x3edc5d9f	0.43040177
73	0xbe65f9ad	-0.22458525
74	0xbd863d51	-0.06554664
75	0xbf5c168d	-0.8597191
76	0xbe58b0dc	-0.21161216
77	0xbcc852d9	-0.024453567
78	0xbe9ffada	-0.31246072
79	0xbed1411c	-0.40869987
80	0xbe602a81	-0.21891214
81	0xbc0f6b4b	-0.008753608
82	0xbe1afdc4	-0.15135866
83	0xbf32dd13	-0.6986858
84	0x3eb0a03d	0.34497252
85	0x3cec2a04	0.028828628
86	0xbf29a111	-0.6626139
87	0xbf289a2e	-0.6586026
88	0x3d97049e	0.073739275
89	0x3f809913	1.0046715
90	0x3e2b1b94	0.16709739
91	0xbe182a29	-0.14859833
92	0xbf22adfd	-0.63546735
93	0xbebcf2ff	-0.3690414
94	0xbd6740dc	-0.05645834
95	0xbec75f47	-0.38939878
96	0x3e96dafa	0.2946394
97	0xbe708eb1	-0.23491932
98	0xbda84b6c	-0.082175106
99	0xbeec8807	-0.4619753
100	0x3e5386ff	0.20656966
101	0x3e646f1a	0.22308007
102	0xbeeae2c3	-0.4587613
103	0xbf4dd466	-0.8040222
104	0xbef07f9f	-0.46972367
105	0xbe97f0ca	-0.29675895
106	0xbd2978c7	-0.041374948
107	0xbd4a74ee	-0.04942792
108	0xbe21b799	-0.15792693
109	0xbeff272e	-0.4983458
110	0xbe5a7cd1	-0.21336676
111	0xbf195eec	-0.59910464
112	0x3e46c801	0.19412233
113	0xbf2323a8	-0.6372628
114	0x3c75b1b1	0.014995978
115	0xbed90d1b	-0.4239281
116	0xbe3b033c	-0.18262953
117	0xbd2f883a	-0.042854525
118	0xbeb761b1	-0.3581672
119	0xbf01af08	-0.506577
120	0xbe7a4af2	-0.24442652
121	0xbeda66b6	-0.42656487
122	0x3cfc8c72	0.030828688
123	0x3f21e3e0	0.63238335
124	0x3e680f76	0.22662148
125	0x3d6b7385	0.057483215
126	0x3e8d0bad	0.2754797
127	0xbf2a2cf8	-0.66474867

net.4.running_var f4 [128]
0	0x3ee1ed00	0.4412613
1	0x3ec0e1e8	0.37672353
2	0x3e9b4cd9	0.30332068
3	0x3ee1188b	0.43964037
4	0x3f7ce489	0.98786217
5	0x3da5535e	0.08072542
6	0x3e7d467d	0.2473392
7	0x3e4a21cd	0.19739456
8	0x3f97b78c	1.1852889
9	0x3df36ad7	0.118856125
10	0x3f41b9e2	0.7567426
11	0x3e8e33d4	0.27773917
12	0x3e7ba500	0.24574661
13	0x3de38b12	0.1111051
14	0x3f903c1e	1.1268346
15	0x3f69d872	0.91345894
16	0x3d9d0891	0.076676495
17	0x3eef1072	0.46692234
18	0x3e31afaa	0.17352167
19	0x3f0e7865	0.5565246
20	0x3d82ab4e	0.0638033
21	0x3e772b81	0.24137689
22	0x3e849764	0.25896752
23	0x3e85ef7d	0.26159278
24	0x3e0732ca	0.13202968
25	0x3d9a867c	0.07545182
26	0x3da186e0	0.078870535
27	0x3ed4dff3	0.4157711
28	0x3e38f64e	0.18062708
29	0x3e2fa5b2	0.17153051
30	0x3f97ce2d	1.1859795
31	0x3d2edc10	0.042690337
32	0x3d33e41d	0.043918718
33	0x3f819575	1.0123736
34	0x3ec6b9db	0.3881367
35	0x3ebe759e	0.3719911
36	0x3f219058	0.63110876
37	0x3f26e9fa	0.6520077
38	0x3dcc5061	0.099762686
39	0x3f6014a8	0.8753152
40	0x3fb91576	1.4459674
41	0x3efa2b34	0.48861086
42	0x3f6635ad	0.8992565
43	0x3f8b82df	1.0899314
44	0x3dd91a1a	0.106006816
45	0x3e71aa06	0.23600015
46	0x3dc620be	0.09674214
47	0x3d25a073	0.04043622
48	0x3e175fc4	0.14782625
49	0x3edf923c	0.43666255
50	0x3ea7c04f	0.32763907
51	0x3e3fa6ca	0.18715969
52	0x3eaeee0b	0.34165987
53	0x3e426bb4	0.18986398
54	0x3e97a4ab	0.2961782
55	0x3f1e0590	0.6172724
56	0x3e0db06d	0.13836832
57	0x3edd9cc5	0.43283668
58	0x3ec5b91a	0.38617784
59	0x3ec5a75b	0.38604245
60	0x3ee8516c	0.4537462
61	0x3f9cd5c8	1.2252741
62	0x3def19eb	0.11674865
63	0x3f0e5483	0.55597705
64	0x3e4faabf	0.20279978
65	0x3f18e419	0.5972305
66	0x3f049256	0.5178579
67	0x3ee168ae	0.44025177
68	0x3e1405ce	0.1445534
69	0x3e2e0aec	0.16996354
70	0x3f49b992	0.7879878
71	0x3deae62c	0.11469683
72	0x3e835264	0.25648797
73	0x3f3bee67	0.7341065
74	0x3f7b3e4e	0.98141944
75	0x3e14aa7a	0.14518157
76	0x3fb1c856	1.3889263
77	0x3dc1e71d	0.094679095
78	0x3f5e5b9c	0.86858535
79	0x3f1b0c61	0.60565764
80	0x3ecf86c4	0.40532506
81	0x3f6eaf02	0.9323579
82	0x3e506105	0.2034951
83	0x3da9c4a8	0.08289462
84	0x3ed772f9	0.42079905
85	0x3f147318	0.5798812
86	0x3e539a79	0.20664395
87	0x3e544e97	0.20733105
88	0x3e40256f	0.1876428
89	0x3e11b794	0.14230186
90	0x3f59b1eb	0.85037106
91	0x3f4b052e	0.7930478
92	0x3de2c195	0.11072079
93	0x3ebea7bd	0.3723735
94	0x3ea9babf	0.33150288
95	0x3f6908c9	0.9102903
96	0x3f22ccf8	0.6359401
97	0x3e2ae810	0.16690087
98	0x3e93a675	0.28837934
99	0x3f8936bd	1.071983
100	0x3d9c22c9	0.07623822
101	0x3e20013e	0.15625474
102	0x3fc6a21e	1.5518224
103	0x3e4055b1	0.18782689
104	0x3efd9a2e	0.49531692
105	0x3e9b4dd3	0.30332813
106	0x3e1ff229	0.1561972
107	0x3f4f081e	0.8087176
108	0x3ea794d2	0.32730728
109	0x3f3a5694	0.7278836
110	0x3f042c91	0.516305
111	0x3f587b40	0.84563065
112	0x3db73163	0.08944967
113	0x3f56dcc0	0.8393059
114	0x3ea70faf	0.32629153
115	0x3fbdb2da	1.4820206
116	0x3cfb6e97	0.030692382
117	0x3e2749e4	0.16336781
118	0x3ecaf6d4	0.3964144
119	0x3ef4d862	0.47821337
120	0x3f94f38a	1.1636822
121	0x3e887acb	0.26656184
122	0x3fa59781	1.293686
123	0x3dca49ea	0.09877379
124	0x3f7c6e6c	0.9860599
125	0x3f20f33a	0.62871134
126	0x3f7c8a4e	0.98648536
127	0x3dfa07a7	0.12208491

net.6.weight f4 [64, 128]
0	0xbda2071e	-0.07911514
1	0xbd85d0f3	-0.065339945
2	0x3ba9281e	0.005162253
3	0xbcfeab06	-0.03108741
4	0xbd1be9da	-0.038064815
5	0xbce32ca1	-0.027731242
6	0xba70ddfa	-0.00091883505
7	0x3cbdb97f	0.02315974
8	0x3df76cf0	0.12081325
9	0xbd0a77cf	-0.033805665
10	0xbd4137db	-0.04717241
11	0x3dadef16	0.08492868
12	0x3d83f7e0	0.06443763
13	0xbc38d68a	-0.011281619
14	0x3cb90266	0.022584151
15	0xbc92ec9b	-0.017935088
16	0xbcc3bb1f	-0.023892937
17	0x3d5d9a8d	0.05410247
18	0x3d270587	0.040776756
19	0xbd45c5d8	-0.04828438
20	0xbb81f202	-0.003965617
21	0x3c50be18	0.012740634
22	0xbcd0c52f	-0.02548465
23	0x3bdbe625	0.006710785
24	0xbd5512fa	-0.05202005
25	0xbd40a2bb	-0.047030192
26	0xbd100966	-0.035165213
27	0xbcdf17ed	-0.027233088
28	0x3d2ffb34	0.042964175
29	0xbc3f337e	-0.011669992
30	0x3d9b9331	0.07596434
31	0x3ccbbdea	0.024870832
32	0x3c84a795	0.01619319
33	0x3d5ceed7	0.053938713
34	0xbda12c4d	-0.07869778
35	0xbc60a8d7	-0.01371213
36	0xbd8cf172	-0.068819895
37	0xbc3a774c	-0.011380982
38	0xbd9fb360	-0.07797885
39	0x3c819c62	0.01582164
40	0xbd60b623	-0.0548612
41	0x3becbf7d	0.0072249756
42	0xbc72f4dc	-0.014828887
43	0x3d578114	0.052613333
44	0xbcba60f8	-0.022751316
45	0xbd55a9eb	-0.052164
46	0xbdace086	-0.08441262
47	0xbd65918d	-0.05604701
48	0xbc74366a	-0.014905551
49	0xbd1ff52d	-0.039052177
50	0x3d5db006	0.054122947
51	0x3b77a5a6	0.0037787943
52	0xbd434bd6	-0.047679745
53	0xbcecf654	-0.028926052
54	0x3d8cd76f	0.06877028
55	0xbd823b1c	-0.063589305
56	0xbcec028d	-0.02880981
57	0xbcc7778e	-0.024349
58	0x3a84550c	0.0010096147
59	0xbd24dd40	-0.040250063
60	0xbd2ffe33	-0.042967033
61	0x3db41e4d	0.08794842
62	0xbd2a5d52	-0.041592903
63	0xbc20115b	-0.009769763
64	0xbda91bea	-0.08257277
65	0x3d4f5194	0.05061491
66	0xbc940090	-0.018066674
67	0x3b415823	0.0029501996
68	0xbe0a0e72	-0.13482073
69	0xbd3d4e58	-0.046217293
70	0xbb164299	-0.002292788
71	0xbc96974f	-0.018382696
72	0x3d274517	0.040837374
73	0xbd14c6c2	-0.036322363
74	0x3ad6c89e	0.0016386693
75	0xbda2b66d	-0.07944951
76	0x3d19a84c	0.037514016
77	0x3d20907c	0.03920029
78	0x3df0ceb0	0.117581725
79	0x3de59601	0.112102516
80	0x3d5bfa66	0.053705595
81	0x3d4febf4	0.05076213
82	0xbd1c3875	-0.03813978
83	0xbd0485cd	-0.032354165
84	0x3babf4de	0.0052476963
85	0x3c0c8623	0.008576903
86	0x3dfab876	0.122422144
87	0x3c952589	0.018206375
88	0xbd8e928b	-0.069615446
89	0xbd3bf4b6	-0.04588767
90	0xbda347e0	-0.079726934
91	0x3cf0e8f9	0.029407965
92	0x3dcb69b0	0.09932268
93	0xbca2150a	-0.019785423
94	0x3d0f8a2c	0.03504388
95	0x3b5e3f15	0.0033912112
96	0x3d69c55f	0.057072993
97	0x3ce4b2db	0.027917316
98	0xbb83c362	-0.004021094
99	0x3d80dda0	0.062922716
100	0x3cc22ca7	0.023702933
101	0x3c84a2b3	0.016190862
102	0x3dd3de66	0.103451535
103	0x3df69071	0.12039269
104	0x3c57f864	0.0131817795
105	0x3d1ae256	0.037813507
106	0xbc219253	-0.009861547
107	0x3c86287a	0.016376723
108	0x3d302499	0.043003652
109	0x3d5cacb0	0.053875625
110	0xbc4509ce	-0.012026263
111	0x3da7d596	0.08195035
112	0xbd29980d	-0.041404773
113	0x3a18b212	0.00058248744
114	0x3d85031b	0.06494733
115	0x3d49ce4a	0.049269
116	0x3d94b00d	0.072601415
117	0xbd29cdbd	-0.041455973
118	0xbd8e66b2	-0.06953181
119	0xbd1e9624	-0.038717404
120	0xbc237b38	-0.009978108
121	0x3d40d815	0.047081072
122	0xbd7d2b64	-0.06180896
123	0xbd53e5c9	-0.051732812
124	0x3d5eb6e9	0.054373655
125	0x3cff2a2a	0.031148035
126	0x3d9652ff	0.07340049
127	0xbb9240b0	-0.0044632778
128	0x3d7b9f03	0.061430942
129	0xbd9e2822	-0.077224985
130	0xbcca9942	-0.024731282
131	0x3ceefc6e	0.029173102
132	0xbd2be5ac	-0.04196708
133	0xbba82354	-0.0051311646
134	0xbca67df8	-0.020323738
135	0xbc6f2aa1	-0.014597566
136	0x3dd0ae75	0.10189525
137	0xbb9d4925	-0.0047999793
138	0xbb0efa44	-0.002181665
139	0x3c8410bf	0.016121266
140	0xbcc4b6e1	-0.024012985
141	0xbd2bb163	-0.041917216
142	0x3e0c4753	0.13699083
143	0x3d92956c	0.07157406
144	0x3c71c6f4	0.014756907
145	0x3d927a95	0.07152287
146	0x3d522e8a	0.051313914
147	0xbce3fd94	-0.027830876
148	0xbc512b10	-0.012766615
149	0x3ca539de	0.020169195
150	0xbd8b4b53	-0.06801476
151	0x3db0f801	0.08641053
152	0xbc84fc97	-0.016233725
153	0xbd22e523	-0.039769303
154	0xbd1613f1	-0.03664011
155	0xbd76caf3	-0.06025214
156	0x3cf1c311	0.02951196
157	0x3d82b95d	0.063830115
158	0x3ce43988	0.027859464
159	0x3d0f89b2	0.035043426
160	0x3d1307bb	0.035896044
161	0x3d859e88	0.06524378
162	0x3cde5937	0.02714215
163	0xbca4694e	-0.020069744
164	0xbd5620b4	-0.052277282
165	0x3c4ccde4	0.01250026
166	0x3b339c9b	0.0027406577
167	0x3cd0599f	0.02543336
168	0xbb978859	-0.004624408
169	0x3c8bd0a9	0.01706727
170	0x3c8f56ef	0.017497508
171	0x3de5f269	0.11227877
172	0xbe00afbe	-0.1256704
173	0xbc13cefe	-0.009021519
174	0xbcd41003	-0.025886541
175	0xbdcf0873	-0.101090334
176	0x3ce2fc0a	0.027708072
177	0x3d24be94	0.040220812
178	0x3d3c3405	0.045948047
179	0x3d9a9b44	0.07549146
180	0x3cce1bc8	0.025159732
181	0xbd090a0d	-0.03345685
182	0x3d833cb7	0.06408065
183	0x3d2b67a8	0.0418469
184	0x3db01b9b	0.08599015
185	0x3cee37ba	0.029079307
186	0x3ce4f8c0	0.027950644
187	0xbd6f4b97	-0.058421697
188	0xb9a938b1	-0.0003227643
189	0x3dba2fd2	0.09091152
190	0xbc7f5996	-0.015585324
191	0xbdadac89	-0.08480174
192	0x3cee4802	0.02908707
193	0xbcf850b6	-0.030311923
194	0xbd8e4670	-0.06947029
195	0xbca631ed	-0.020287478
196	0xbe28ee13	-0.16497068
197	0x3c9032d0	0.017602354
198	0xbd2eb4c4	-0.04265286
199	0xbce64186	-0.028107416
200	0xbccf3804	-0.025295265
201	0x3d06bb79	0.03289363
202	0xbd0438de	-0.032280795
203	0x3a857475	0.0010181802
204	0x3ca9704d	0.020683432
205	0xbd6b5f21	-0.05746377
206	0x3d6a1930	0.057152927
207	0x3bed6382	0.0072445283
208	0xbc12dd76	-0.008963933
209	0x3cdbd56d	0.026835168
210	0xbb667616	-0.00351656
211	0xbcd6f532	-0.026239965
212	0x3dbcb0f9	0.09213442
213	0x3d4e4edd	0.05036818
214	0xbd236f78	-0.039901227
215	0x3d950306	0.07275967
216	0xbb461667	-0.0030225755
217	0xbda7d907	-0.081956916
218	0x3d6bf7cd	0.057609368
219	0x3bd0edd1	0.006376006
220	0x3db72d7b	0.089442216
221	0xbd753bfe	-0.059871666
222	0x3d56c3db	0.052432876
223	0xbc3d4a95	-0.011553426
224	0xbc84c62b	-0.016207775
225	0x3d1e612f	0.0386669
226	0xbd046848	-0.032326013
227	0x3cc032d1	0.023461731
228	0xbd8f47d1	-0.0699612
229	0x3d3e2ffa	0.046432473
230	0x3e132d68	0.1437279
231	0xbcdac1be	-0.026703712
232	0xbd25f9f6	-0.040521584
233	0xbdc083b8	-0.09400123
234	0xbced7dd3	-0.028990662
235	0xbd1ceab2	-0.03830976
236	0x3c89896b	0.016789159
237	0x3cd15f40	0.025558114
238	0x3d3ec5eb	0.046575468
239	0x3d8d2273	0.06891336
240	0x3cc86bd6	0.024465483
241	0x3c0e05fa	0.008668417
242	0xbdbf6779	-0.09345908
243	0x3d6b6b7e	0.05747556
244	0x3d50a9ba	0.050943114
245	0x3d638aba	0.05555222
246	0x3ba8eabb	0.005154935
247	0xbd93b9f1	-0.072132
248	0x3d18d72f	0.03731459
249	0xbb8dcb9f	-0.004327252
250	0xbd475d3d	-0.048672903
251	0xbcf3b5cb	-0.029749772
252	0x3d61be96	0.055113398
253	0xbda07684	-0.07835105
254	0x3d8e894a	0.069597796
255	0xbd85141d	-0.06497977

net.6.bias f4 [64]
0	0x3d8f94f8	0.070108354
1	0x3d2e86ea	0.042609133
2	0x3d0c868a	0.034307994
3	0xbd8a8462	-0.06763531
4	0x395ee265	0.00021255908
5	0x3d851741	0.06498576
6	0x3b64e82f	0.0034928431
7	0xbd9c2111	-0.076234944
8	0x3a40c0f9	0.0007352974
9	0x3d70a643	0.05875231
10	0x3c0ec3b9	0.008713656
11	0xbc4426ee	-0.011972172
12	0xbd02cd25	-0.031933922
13	0x3d42396e	0.04741805
14	0xbcb9b109	-0.022667425
15	0xbce3bf94	-0.027801313
16	0x3c66b029	0.014080086
17	0x3bba8ae7	0.005692828
18	0x3bbd89d7	0.005784254
19	0x3bfea417	0.007771026
20	0xbd73add5	-0.05949195
21	0xbd9d5541	-0.076822765
22	0x3d7e991d	0.06215774
23	0x3cdb3a5c	0.026761226
24	0x3d30dd7e	0.04317998
25	0xbda60d42	-0.081079975
26	0x3c609913	0.013708371
27	0x3c6fa7b7	0.014627389
28	0xbc1738dd	-0.009229866
29	0x3ca35c72	0.019941542
30	0xbda743d2	-0.081672326
31	0x3d9f4fd8	0.07778901
32	0x3d440b4e	0.047862343
33	0x3ca49c9c	0.020094208
34	0x3ca7c0d4	0.02047769
35	0xbd7528a2	-0.059853204
36	0xbdb664ae	-0.08905922
37	0xbd2665b7	-0.040624347
38	0x3d3a1eb7	0.04543945
39	0xbda7c727	-0.08192282
40	0x3db0a454	0.08625093
41	0xbd16edd8	-0.03684792
42	0xbd366d86	-0.044538043
43	0x3c445d3b	0.0119851185
44	0xbd939763	-0.07206609
45	0xbc617e68	-0.013763048
46	0x3bfad784	0.007655086
47	0xbc4dbfbf	-0.012557923
48	0x3c8eced2	0.017432604
49	0x3d2507a3	0.040290486
50	0x3c6e7695	0.014554639
51	0x3d313b35	0.043269355
52	0x3d7ba885	0.06144001
53	0xbcee60b8	-0.029098853
54	0x3d1085e3	0.035283934
55	0xbc5eeb75	-0.013605942
56	0xbd9b56e3	-0.07584932
57	0xbd223ee7	-0.03961077
58	0x3daa4cbe	0.08315419
59	0x3d92763a	0.07151456
60	0xbd3c0732	-0.0459053
61	0x3d368a43	0.04456545
62	0x3aa4869e	0.0012552326
63	0xbda26861	-0.07930065

net.7.weight f4 [64]
0	0x3f9ecb24	1.2405744
1	0x3fa0f7d5	1.2575632
2	0x3f8e1eb2	1.1103117
3	0x3f8a72f6	1.0816333
4	0x3f9d58b9	1.2292701
5	0x3f9b5724	1.2135968
6	0x3f8868de	1.0657003
7	0x3f8cd0c7	1.1001214
8	0x3f8a3aca	1.0799191
9	0x3f8c8172	1.0977004
10	0x3fa49a89	1.285966
11	0x3f906976	1.1282184
12	0x3f9470ed	1.1596962
13	0x3f8dddca	1.108331
14	0x3f792d8a	0.9733511
15	0x3fa06ead	1.2533776
16	0x3f90b01c	1.1303744
17	0x3f8e93a0	1.1138802
18	0x3f926804	1.1437993
19	0x3f997a52	1.1990454
20	0x3f9e683c	1.237556
21	0x3f78f6b9	0.9725147
22	0x3fa14113	1.2597984
23	0x3f9d1696	1.2272518
24	0x3f9f3085	1.2436682
25	0x3fa53aee	1.2908609
26	0x3f8a41e8	1.0801363
27	0x3f784834	0.96985173
28	0x3f8bcc0d	1.0921646
29	0x3f97a74a	1.1847928
30	0x3f82a716	1.020724
31	0x3fa35a10	1.276186
32	0x3f9bed07	1.218171
33	0x3f9b285b	1.212169
34	0x3f8b2b33	1.0872558
35	0x3f8d7ad5	1.105311
36	0x3f8badf5	1.0912462
37	0x3f887221	1.0659829
38	0x3f888310	1.0664997
39	0x3f8b2a5a	1.08723
40	0x3f8b7ef4	1.0898118
41	0x3f7794b1	0.9671126
42	0x3f8f2ae6	1.1184967
43	0x3f9e259a	1.2355225
44	0x3f962d3b	1.1732553
45	0x3f9550ef	1.1665324
46	0x3f9cae2b	1.2240652
47	0x3f952622	1.1652262
48	0x3f999276	1.1997821
49	0x3f87b93a	1.0603402
50	0x3f962852	1.1731055
51	0x3f9d712a	1.230016
52	0x3f9b858f	1.2150134
53	0x3f9edf99	1.2411987
54	0x3f8f153c	1.1178355
55	0x3f97b0c1	1.1850816
56	0x3f8c5fd9	1.096675
57	0x3f9f768b	1.2458051
58	0x3f86e55f	1.0538749
59	0x3fa3373b	1.275123
60	0x3f8ed56c	1.1158881
61	0x3f9d76fe	1.2301939
62	0x3f8e4297	1.1114072
63	0x3fa04edb	1.2524065

net.7.bias f4 [64]
0	0x3e29646b	0.16542213
1	0x3de9060c	0.113781065
2	0x3dc9700b	0.098358236
3	0x3e116f01	0.14202501
4	0x3e1b9482	0.1519337
5	0x3e027012	0.12738064
6	0xbab8acbe	-0.0014089567
7	0x3e1134c3	0.14180283
8	0x3deba25e	0.115055785
9	0x3de48e72	0.11159982
10	0x3e21563e	0.15755555
11	0x3e1b6ec9	0.1517898
12	0x3e6ad243	0.22931771
13	0x3df63356	0.1202151
14	0xbdf530cb	-0.11972197
15	0x3e36176a	0.1778237
16	0x3e4cd6ce	0.20003816
17	0x3e1b9065	0.15191801
18	0x3d989d9f	0.07451939
19	0x3e17b709	0.14815916
20	0x3e28dc98	0.164904
21	0xbdab379b	-0.08360215
22	0x3e421321	0.1895261
23	0x3e20b848	0.15695298
24	0x3e2a9a63	0.16660456
25	0xbd9b16e6	-0.07572727
26	0x3d29682a	0.041359104
27	0xbcd916fb	-0.026500216
28	0x3e0be56e	0.13661739
29	0x3e4e936a	0.20173422
30	0x3e00d2ed	0.12580462
31	0x3e3d732a	0.18500963
32	0x3c7d9b72	0.015478956
33	0x3e25ff91	0.16210772
34	0x3e60a0e4	0.21936375
35	0x3e04e4ad	0.12977858
36	0x3e5e77b8	0.21725357
37	0x3afa022d	0.0019074135
38	0x3ca551ae	0.02018055
39	0x3e55d02e	0.20880195
40	0x3dd5320b	0.104099356
41	0xbdbd5b59	-0.09245939
42	0x3dcfca7d	0.101460434
43	0x3e46d3b9	0.19416703
44	0x3e2fff6d	0.17187281
45	0x3e5a0efc	0.21294779
46	0x3dce7b6f	0.10082137
47	0x3e434a0a	0.19071212
48	0x3e12942d	0.14314337
49	0x3d345fba	0.044036604
50	0x3e36e34d	0.17860146
51	0x3e220762	0.15823129
52	0x3e347a87	0.17624865
53	0x3e2a8376	0.16651711
54	0x3def7db0	0.11693895
55	0x3e3236b6	0.17403683
56	0x3e6e3d3c	0.23265547
57	0x3e3e6e3a	0.18596736
58	0x3dc3ca85	0.09560112
59	0x3e460a00	0.19339752
60	0x3dd51569	0.10404474
61	0x3e20df3e	0.1571016
62	0x3df3327e	0.11874865
63	0x3e3e8505	0.1860543
